…
您需要选择用于特征提取的MobileNetV2层，显然，最后一个分类层（在“顶部”，因为大多数机器学习模型的图表从下到上）并不是非常有用。相反，您将遵循通常的做法，在展平操作之前依赖于最后一层，该层称为“瓶颈层”，与最终/顶层相比，瓶颈层保持了很多通用性。随后在原有模型的后面增加一个池化层，对数据降维。最后是一个5个节点的输出层，因为需要的结果只有5类。

要从特征块生成预测，请用5x5在空间位置上进行平均，使用tf.keras.layers.GlobalAveragePooling2D 层将特征转换为每个图像对应一个1280元素向量。

In[7]:

base_model.trainable = False   
model = tf.keras.Sequential([ base_model, tf.keras.layers.Conv2D(32, 3,activation='relu'), tf.keras.layers.Dropout(0.2), tf.keras.layers.GlobalAveragePooling2D(, tf.keras.layers.Dense(5,activation='softmax')   
1)

# 4. 编译，训练模型

在训练之前先编译模型，损失函数使用类别交叉熵。In[8]:

model.compile(optimizer=tf.keras.optimizers.Adam(), loss='categorical_crossentropy', metrics=['accuracy'])

Out[8]:

Model: "sequential"

Layer (type) Output Shape Param # =

mobilenetv2_1.00_224 (Functi (None,7,7, 1280) 2257984 conv2d (Conv2D) (None, 5, 5,32) 368672 dropout (Dropout) (None, 5, 5, 32) 0 global_average_pooling2d (Gl (None, 32) 0 dense (Dense) (None, 5) 165

Total params: 2,626,821   
Trainable params: 368.837   
Non-trainable params: 2,257,984

训练模型，训练和验证准确性/损失的学习曲线如图8-7所示。   
In[9]:   
epochs = 10   
history = model.fit(train_generator, steps_per_epoch=len(train_generator), epochs=epochs,validation_data=val_generator, validation_steps=len(val_generator))

![](images/666c9190e61dcdeb178f4a880505869cfe43b3ee30e1d00d65df1c68b05a1d87.jpg)  
图8-7学习曲线

# 5．微调
…
