…
1", "category": "user_2_category_12", "data_type": "unstructured"}, "excluded_embed_metadata_keys": [], "excluded_llm_metadata_keys": [], "relationships": {}, "text": "\u7f16\u8bd1\uff0c\u8bad\u7ec3\u6a21\u578b\r\n\r\n\u5728\u8bad\u7ec3\u4e4b\u524d\u5148\u7f16\u8bd1\u6a21\u578b\uff0c\u635f\u5931\u51fd\u6570\u4f7f\u7528\u7c7b\u522b\u4ea4\u53c9\u71b5\u3002In[8]:\r\n\r\nmodel.compile(optimizer=tf.keras.optimizers.Adam(), loss='categorical_crossentropy', metrics=['accuracy'])\r\n\r\nOut[8]:\r\n\r\nModel: \"sequential\"\r\n\r\nLayer (type) Output Shape Param # =\r\n\r\nmobilenetv2_1.00_224 (Functi (None,7,7, 1280) 2257984 conv2d (Conv2D) (None, 5, 5,32) 368672 dropout (Dropout) (None, 5, 5, 32) 0 global_average_pooling2d (Gl (None, 32) 0 dense (Dense) (None, 5) 165\r\n\r\nTotal params: 2,626,821   \r\nTrainable params: 368.837   \r\nNon-trainable params: 2,257,984\r\n\r\n\u8bad\u7ec3\u6a21\u578b\uff0c\u8bad\u7ec3\u548c\u9a8c\u8bc1\u51c6\u786e\u6027/\u635f\u5931\u7684\u5b66\u4e60\u66f2\u7ebf\u5982\u56fe8-7\u6240\u793a\u3002   \r\nIn[9]:   \r\nepochs = 10   \r\nhistory = model.fit(train_generator, steps_per_epoch=len(train_generator), epochs=epochs,validation
…
